mobile/modules/bluetooth-sdk/ios/Packages/SherpaOnnx/Model/joiner.onnx (onnx, 259335 bytes, 2 tensors)

output_linear.bias f4 [500]
0	0x3c85f5ae	0.0163525
1	0xbeb5c10e	-0.35498852
2	0x3de51027	0.111847214
3	0x3d147d27	0.036252167
4	0x3cd4da12	0.02598289
5	0x3d369229	0.044572983
6	0x3d766564	0.060155287
7	0xbda27d7e	-0.07934092
8	0xbdccc255	-0.099980034
9	0xbdec2aac	-0.115315765
10	0x3daee2f0	0.08539379
11	0x3d6716e5	0.05641832
12	0x3d155f83	0.03646804
13	0x3d2aa5a6	0.04166188
14	0xbe4a2206	-0.19739541
15	0xbb8d6cca	-0.004315947
16	0x3c833482	0.016016249
17	0x3d1728ea	0.036904253
18	0x3de78fc7	0.1130672
19	0xbbaa55e8	-0.005198229
20	0x3de77e77	0.11303418
21	0x3de739c1	0.112903126
22	0x3d93d2e7	0.07217961
23	0x3c9fe605	0.019518862
24	0x3e1a15f5	0.15047438
25	0x3da640f5	0.08117858
26	0xbcb4b22b	-0.022057613
27	0x3e24da2c	0.16098851
28	0x3e726b7c	0.23673815
29	0xbd4f92a5	-0.05067696
30	0xbbd4f701	-0.0064991717
31	0x3d28bfbe	0.041198485
32	0xbd25545e	-0.040363662
33	0xbcdde033	-0.027084446
34	0x3ebd599f	0.36982438
35	0x3db46782	0.08808805
36	0xbda963fc	-0.08271024
37	0x3d269387	0.040668037
38	0x3cee5cd5	0.029097
39	0x3e0a69e5	0.13516958
40	0xbdbc36cd	-0.0919014
41	0x3da3c7f1	0.0799712
42	0x3c4a24b1	0.0123378495
43	0xbd3de4b7	-0.046360698
44	0xbb1b4fd2	-0.00236987
45	0x3e377e32	0.17919233
46	0xbdf02e9f	-0.11727642
47	0xbd2d76d4	-0.04234965
48	0x3cb311b9	0.021859037
49	0x3c659637	0.014012865
50	0x3c85ed06	0.016348373
51	0x3ddec027	0.10876494
52	0xbc618948	-0.013765641
53	0x3d88b8dd	0.06675885
54	0x3dd7a629	0.105297394
55	0xbdda4c28	-0.10659057
56	0x3e2339bb	0.15939991
57	0xbdd4864d	-0.10377178
58	0xbe3f9def	-0.1871259
59	0x3e10ec91	0.14152743
60	0xbd78a5ee	-0.060705118
61	0xbe64524f	-0.22297023
62	0xbdd1a689	-0.10236842
63	0xbced4f12	-0.028968368
64	0x3d8cb24d	0.06869946
65	0x3daed8c8	0.085374415
66	0xbe246d42	-0.16057304
67	0xbdf9aa6c	-0.121907085
68	0xbe7fe047	-0.24987899
69	0xbe0ecfa1	-0.13946392
70	0xbdb0cf20	-0.08633256
71	0xbdc05062	-0.09390332
72	0xbe22eaa7	-0.15909825
73	0xbdb5eeda	-0.08883448
74	0xbd012517	-0.031529512
75	0xbd90df93	-0.070738934
76	0xbe371875	-0.17880423
77	0xbe2db4a8	-0.16963446
78	0x3bebfbaa	0.0072016316
79	0xbdcc1639	-0.09965176
80	0x3de5744a	0.11203821
81	0x3c369df0	0.011146054
82	0xbd04106b	-0.03224222
83	0xbdc2c4f6	-0.095102236
84	0xbe173a1d	-0.14768262
85	0xbd6633d5	-0.056201775
86	0x3dfb2370	0.122626185
87	0xbc8c5f71	-0.017135354
88	0xbdb87d41	-0.09008265
89	0x3ca62eb8	0.02028595
90	0xbe1ce858	-0.15323007
91	0xbd610599	-0.05493698
92	0xbe3e2b05	-0.18571098
93	0xbdba13ca	-0.09085806
94	0xbc3298d7	-0.010900698
95	0xbe235300	-0.1594963
96	0xbe4d5089	-0.20050253
97	0xbdc566b4	-0.0963873
98	0x3c3dd3c5	0.011586134
99	0x3d12d2de	0.03584563
100	0x3a7fa1c5	0.00097515836
101	0xbdfcde4c	-0.12347087
102	0xbe049a63	-0.12949519
103	0xbe093b2c	-0.13401479
104	0xbddf1cc4	-0.108941585
105	0xbc99d13c	-0.018776529
106	0xbc50efaf	-0.0127524575
107	0xbe0a6601	-0.13515474
108	0xbc3eb749	-0.011640378
109	0xbca2d1bc	-0.0198754
110	0xbdb75212	-0.089512005
111	0xbd5962cb	-0.053072732
112	0xbdfbdc78	-0.122979105
113	0xbe6833b0	-0.22675967
114	0xbde1e935	-0.11030809
115	0xbda20f51	-0.079130776
116	0xbe1c7ff3	-0.15283184
117	0x3decb6a4	0.115582734
118	0xbda9d1ad	-0.082919456
119	0x3da07907	0.07835584
120	0xbde927fd	-0.1138458
121	0xbbd0fb3a	-0.006377605
122	0x3d737698	0.05943927
123	0xbe17c4fe	-0.1482124
124	0xbd731fe9	-0.059356604
125	0xbd3a9128	-0.045548588
126	0x3cae4660	0.021273792
127	0x3d5f862a	0.05457131
128	0xbe1b214b	-0.15149419
129	0x3c483eab	0.012221972
130	0xbe303cbd	-0.1721067
131	0xbdd1c815	-0.10243241
132	0x3cfca132	0.030838583
133	0xbd20f0e8	-0.039292246
134	0x3c192dfb	0.0093493415
135	0xbe208e90	-0.15679383
136	0xbe268b8e	-0.16264173
137	0xbcbd9fa3	-0.02314741
138	0xbd820482	-0.06348516
139	0x3d8fa244	0.070133716
140	0xbd29aba3	-0.04142345
141	0xbd3a3c24	-0.04546751
142	0xbdf9619a	-0.12176819
143	0xbdb60b0c	-0.08888826
144	0xbdd74588	-0.10511309
145	0xbe6c5245	-0.23078258
146	0xbe7090c5	-0.23492725
147	0x3d671b93	0.05642278
148	0xbe2716c8	-0.16317284
149	0xbdf4910d	-0.11941729
150	0xbe2e6e1d	-0.17034192
151	0xbe3fa211	-0.18714167
152	0xbdcbc3b6	-0.09949438
153	0xbda15287	-0.07877069
154	0x3cd33dd2	0.025786314
155	0xbe315df1	-0.17320992
156	0xbd5f2d09	-0.05448631
157	0xbcca1be1	-0.024671497
158	0x3d3a8248	0.045534402
159	0xbdcceb58	-0.10005826
160	0xbe41f2e1	-0.18940307
161	0xbd51dbfd	-0.051235188
162	0x3ce71d75	0.028212288
163	0xbe31b8d6	-0.17355666
164	0xbe19f921	-0.15036441
165	0xbe302e84	-0.17205244
166	0x3d2c953a	0.0421345
167	0x3d9e4096	0.077271625
168	0xbd8fd6c6	-0.07023387
169	0xbdd9a2f0	-0.10626781
170	0xbe0beda7	-0.13664876
171	0xbd94bb65	-0.07262305
172	0xbe84e9e8	-0.25959706
173	0xbe69cb6a	-0.22831503
174	0xbc9fd6cc	-0.019511603
175	0xbe06df24	-0.13171059
176	0xbe03be41	-0.12865545
177	0xbcf930dc	-0.030418806
178	0xbdb0aab9	-0.08626313
179	0xbe29853b	-0.1655473
180	0xbde04116	-0.10949914
181	0xbddc389d	-0.107529856
182	0xbcd9378c	-0.026515745
183	0xbd8dd2c8	-0.06924969
184	0xbe30f43a	-0.17280665
185	0x3cf571c1	0.029961469
186	0xbe3fb5af	-0.1872165
187	0xbb62ceba	-0.0034608082
188	0xbc9326ed	-0.017962897
189	0xbdd792f0	-0.10526073
190	0xbdde4292	-0.10852541
191	0xbd9ede4d	-0.07757244
192	0xbe5a4f1e	-0.21319243
193	0xbd0cb24f	-0.034349736
194	0xbd9e2621	-0.07722116
195	0xbdc6c427	-0.09705382
196	0xbdad2711	-0.08454717
197	0x3c942ae9	0.018086867
198	0xbe202a1a	-0.1564106
199	0xbdde20e6	-0.10846119
200	0xbe2969fe	-0.16544339
201	0xbd8e5d6d	-0.06951413
202	0xbddecd2d	-0.10878978
203	0xbe024a54	-0.12723666
204	0xbe06ed87	-0.13176547
205	0xbe2e35ba	-0.17012683
206	0xbd1a9abc	-0.037745222
207	0xbe13b09b	-0.14422838
208	0xbdc44fe0	-0.095855474
209	0xbe013a53	-0.12619905
210	0xbe4df284	-0.20112044
211	0xbe23029d	-0.15918966
212	0x3d64e4c1	0.05588222
213	0xbdf31ea5	-0.11871079
214	0xbde2239a	-0.11041947
215	0xbde84402	-0.113410965
216	0xbdb83da8	-0.08996135
217	0xbe28a544	-0.16469294
218	0xbe3ed6e3	-0.1863666
219	0xbd507956	-0.050896965
220	0xbdb9620e	-0.090519056
221	0xbe287de6	-0.16454276
222	0xbddba9c2	-0.10725738
223	0xbbf1485a	-0.0073633613
224	0xbe0ebec9	-0.13939966
225	0xbe0d5c60	-0.1380477
226	0xbe1ab59e	-0.15108344
227	0xbd7c9c84	-0.061672702
228	0xbe2ca219	-0.1685871
229	0xbd87a3ed	-0.06623063
230	0xbdc17c33	-0.09447517
231	0xbd2e57a8	-0.042564064
232	0xbe36e825	-0.17861994
233	0x3c425ad6	0.011862477
234	0xbd8baad6	-0.06819694
235	0xbd8e7366	-0.06955604
236	0xbdce8bab	-0.10085233
237	0xbd23bb7a	-0.039973713
238	0xbd85e6ae	-0.06538139
239	0xbd41d57f	-0.047322746
240	0xbe391035	-0.18072589
241	0xbe1888c8	-0.14895928
242	0xbc045fb9	-0.008079463
243	0xbd8a503c	-0.06753585
244	0xbdd201e9	-0.102542706
245	0xbdd101d6	-0.10205428
246	0xbe627d8a	-0.22118202
247	0xbe133f72	-0.14379671
248	0xbd45eec9	-0.048323426
249	0xbdb29590	-0.08719933
250	0xbe243adc	-0.16038078
251	0xbde40232	-0.11133231
252	0xbe2d08c0	-0.16897869
253	0xbdcbf748	-0.099592745
254	0xbd90b03c	-0.07064864
255	0xbd10f5f2	-0.0353908

output_linear.weight_quantized i1 [512, 500]
0	0xe8	-24
1	0xf9	-7
2	0x08	8
3	0xf7	-9
4	0x17	23
5	0x02	2
6	0xf5	-11
7	0xf3	-13
8	0xf0	-16
9	0x08	8
10	0x05	5
11	0xf5	-11
12	0xf1	-15
13	0xff	-1
14	0xf2	-14
15	0x00	0
16	0xfd	-3
17	0xf6	-10
18	0xeb	-21
19	0xed	-19
20	0x05	5
21	0xff	-1
22	0xe5	-27
23	0xef	-17
24	0x06	6
25	0xf7	-9
26	0xf6	-10
27	0xf4	-12
28	0xef	-17
29	0xee	-18
30	0xf1	-15
31	0xf1	-15
32	0xf5	-11
33	0xfb	-5
34	0xed	-19
35	0xeb	-21
36	0xfd	-3
37	0xff	-1
38	0xf1	-15
39	0xec	-20
40	0xf4	-12
41	0xee	-18
42	0xfc	-4
43	0xed	-19
44	0xff	-1
45	0x11	17
46	0x1f	31
47	0xf0	-16
48	0xf4	-12
49	0xf0	-16
50	0xff	-1
51	0xf2	-14
52	0x01	1
53	0xe3	-29
54	0xe4	-28
55	0xf9	-7
56	0xf0	-16
57	0xfe	-2
58	0xec	-20
59	0xf3	-13
60	0xff	-1
61	0x06	6
62	0xfb	-5
63	0xf1	-15
64	0xee	-18
65	0xff	-1
66	0xdd	-35
67	0xfb	-5
68	0x0c	12
69	0xf1	-15
70	0xf3	-13
71	0xf0	-16
72	0xf5	-11
73	0xeb	-21
74	0xed	-19
75	0x03	3
76	0xf5	-11
77	0xda	-38
78	0xfa	-6
79	0x03	3
80	0xef	-17
81	0xfb	-5
82	0xf1	-15
83	0xe8	-24
84	0xfe	-2
85	0xfe	-2
86	0xe5	-27
87	0xf9	-7
88	0xe5	-27
89	0xe7	-25
90	0xfd	-3
91	0x19	25
92	0xec	-20
93	0xe5	-27
94	0xf0	-16
95	0xdd	-35
96	0xf9	-7
97	0xe1	-31
98	0xfd	-3
99	0xe3	-29
100	0xf3	-13
101	0xe9	-23
102	0xe9	-23
103	0x0e	14
104	0xfe	-2
105	0x1d	29
106	0x00	0
107	0xf3	-13
108	0x00	0
109	0xf1	-15
110	0xea	-22
111	0xf8	-8
112	0xf2	-14
113	0xe1	-31
114	0x02	2
115	0xd2	-46
116	0xf5	-11
117	0x03	3
118	0xdd	-35
119	0x0c	12
120	0xfc	-4
121	0xe3	-29
122	0xe4	-28
123	0xfc	-4
124	0xef	-17
125	0xf6	-10
126	0xfd	-3
127	0xe4	-28
128	0x16	22
129	0xea	-22
130	0xf6	-10
131	0x14	20
132	0xe6	-26
133	0x18	24
134	0xf7	-9
135	0xfa	-6
136	0x1a	26
137	0xe7	-25
138	0xe3	-29
139	0xf5	-11
140	0xfd	-3
141	0xf3	-13
142	0xf9	-7
143	0xeb	-21
144	0xf3	-13
145	0x19	25
146	0xfb	-5
147	0xed	-19
148	0xf0	-16
149	0xf8	-8
150	0xf8	-8
151	0x0c	12
152	0xe9	-23
153	0xec	-20
154	0xf9	-7
155	0xf6	-10
156	0xf4	-12
157	0xe6	-26
158	0xf0	-16
159	0xd7	-41
160	0xe3	-29
161	0xef	-17
162	0xf9	-7
163	0xd6	-42
164	0x22	34
165	0xf5	-11
166	0xea	-22
167	0xeb	-21
168	0xf9	-7
169	0x01	1
170	0x0d	13
171	0xf3	-13
172	0xed	-19
173	0xfa	-6
174	0xf0	-16
175	0x03	3
176	0xe8	-24
177	0xf0	-16
178	0xfd	-3
179	0xe5	-27
180	0xe9	-23
181	0xd5	-43
182	0xfe	-2
183	0xef	-17
184	0xe2	-30
185	0xed	-19
186	0xf0	-16
187	0xf8	-8
188	0xf1	-15
189	0xde	-34
190	0xeb	-21
191	0xe6	-26
192	0xf3	-13
193	0xe2	-30
194	0xf3	-13
195	0xee	-18
196	0xf2	-14
197	0xe2	-30
198	0xf2	-14
199	0xe2	-30
200	0xe1	-31
201	0xeb	-21
202	0xf3	-13
203	0xfd	-3
204	0x01	1
205	0xe9	-23
206	0xe0	-32
207	0xe7	-25
208	0x0b	11
209	0xeb	-21
210	0x01	1
211	0x09	9
212	0xea	-22
213	0xe2	-30
214	0xfe	-2
215	0x02	2
216	0xee	-18
217	0x1d	29
218	0xef	-17
219	0xe4	-28
220	0xe4	-28
221	0x00	0
222	0x05	5
223	0x01	1
224	0xf6	-10
225	0xf1	-15
226	0xec	-20
227	0xe0	-32
228	0x01	1
229	0xd8	-40
230	0xe2	-30
231	0xea	-22
232	0xf7	-9
233	0xec	-20
234	0xf0	-16
235	0x1b	27
236	0x00	0
237	0x01	1
238	0xe1	-31
239	0xe9	-23
240	0x0a	10
241	0xe9	-23
242	0x06	6
243	0xf2	-14
244	0xfd	-3
245	0x0b	11
246	0xef	-17
247	0xd4	-44
248	0xf8	-8
249	0x00	0
250	0xf9	-7
251	0xea	-22
252	0xfe	-2
253	0xfe	-2
254	0xed	-19
255	0xd1	-47
